…
I1206 02:54:39.764204 2071388928 net.cpp:322] The NetState phase (0) differed from the phase (1) specified by a rule in layer cifar
I1206 02:54:39.764230 2071388928 net.cpp:322] The NetState phase (0) differed from the phase (1) specified by a rule in layer accuracy
I1206 02:54:39.764242 2071388928 net.cpp:49] Initializing net from parameters:
name: "CIFAR10_quick"
state {
  phase: TRAIN
}
layer {
  name: "cifar"
  type: "Data"
  top: "data"
  top: "label"
  include {
    phase: TRAIN
  }
  transform_param {
    mean_file: "examples/cifar10/mean.binaryproto"
  }
  data_param {
    source: "examples/cifar10/cifar10_train_lmdb"
    batch_size: 100
    backend: LMDB
  }
}
layer {
  name: "conv1"
  type: "Convolution"
  bottom: "data"
  top: "conv1"
  param {
    lr_mult: 1
  }
  param {
    lr_mult: 2
  }
  convolution_param {
    num_output: 32
    pad: 2
    kernel_size: 5
    stride: 1
    weight_filler {
      type: "gaussian"
      std: 0.0001
    }
    bias_filler {
      type: "constant"
    }
  }
}
layer {
  name: "pool1"
  type: "Pooling"
  bottom: "conv1"
  top: "pool1"
  pooling_param {
    pool: MAX
    kernel_size: 3
    stride: 2
  }
}
layer {
  name: "relu1"
  type: "ReLU"
  bottom: "pool1"
  top: "pool1"
}
layer {
  name: "conv2"
  type: "Convolution"
  bottom: "pool1"
  top: "conv2"
  param {
    lr_mult: 1
  }
  param {
    lr_mult: 2
  }
  convolution_param {
    num_output: 32
    pad: 2
    kernel_size: 5
    stride: 1
    weight_filler {
      type: "gaussian"
      std: 0.01
    }
    bias_filler {
      type: "constant"
    }
  }
}
layer {
  name: "relu2"
  type: "ReLU"
  bottom: "conv2"
  top: "conv2"
}
layer {
  name: "pool2"
  type: "Pooling"
  bottom: "conv2"
  top: "pool2"
  pooling_param {
    pool: AVE
    kernel_size: 3
    stride: 2
  }
}
layer {
  name: "conv3"
  type: "Convolution"
  bottom: "pool2"
  top: "conv3"
  param {
    lr_mult: 1
  }
  param {
    lr_mult: 2
  }
  convolution_param {
    num_output: 64
    pad: 2
    kernel_size: 5
    stride: 1
    weight_filler {
      type: "gaussian"
      std: 0.01
    }
    bias_filler {
      type: "constant"
    }
  }
}
layer {
  name: "relu3"
  type: "ReLU"
  bottom: "conv3"
  top: "conv3"
}
layer {
  name: "pool3"
  type: "Pooling"
  bottom: "conv3"
  top: "pool3"
  pooling_param {
    pool: AVE
    kernel_size: 3
    stride: 2
  }
}
layer {
  name: "ip1"
  type: "InnerProduct"
  bottom: "pool3"
  top: "ip1"
  param {
    lr_mult: 1
  }
  param {
    lr_mult: 2
  }
  inner_product_param {
    num_output: 64
    weight_filler {
      type: "gaussian"
      std: 0.1
    }
    bias_filler {
      type: "constant"
    }
  }
}
layer {
  name: "ip2"
  type: "InnerProduct"
  bottom: "ip1"
  top: "ip2"
  param {
    lr_mult: 1
  }
  param {
    lr_mult: 2
  }
  inner_product_param {
    num_output: 10
    weight_filler {
      type: "gaussian"
      std: 0.1
    }
    bias_filler {
      type: "constant"
    }
  }
}
layer {
  name: "loss"
  type: "SoftmaxWithLoss"
  bottom: "ip2"
  bottom: "label"
  top: "loss"
}
I1206 02:54:39.764829 2071388928 layer_factory.hpp:76] Creating layer cifar
I1206 02:54:39.769704 2071388928 net.cpp:106] Creating Layer cifar
I1206 02:54:39.769742 2071388928 net.cpp:411] cifar -> data
I1206 02:54:39.769765 2071388928 net.cpp:411] cifar -> label
I1206 02:54:39.769785 2071388928 data_transformer.cpp:25] Loading mean file from: examples/cifar10/mean.binaryproto
I1206 02:54:39.775663 194625536 db_lmdb.cpp:38] Opened lmdb examples/cifar10/cifar10_train_lmdb
I1206 02:54:39.794874 2071388928 data_layer.cpp:41] output data size: 100,3,32,32
I1206 02:54:39.799284 2071388928 net.cpp:150] Setting up cifar
I1206 02:54:39.799316 2071388928 net.cpp:157] Top shape: 100 3 32 32 (307200)
I1206 02:54:39.799335 2071388928 net.cpp:157] Top shape: 100 (100)
I1206 02:54:39.799343 2071388928 net.cpp:165] Memory required for data: 1229200
I1206 02:54:39.799356 2071388928 layer_factory.hpp:76] Creating layer conv1
I1206 02:54:39.799376 2071388928 net.cpp:106] Creating Layer conv1
I1206 02:54:39.799384 2071388928 net.cpp:454] conv1 <- data
I1206 02:54:39.799396 2071388928 net.cpp:411] conv1 -> conv1
I1206 02:54:39.800132 2071388928 net.cpp:150] Setting up conv1
I1206 02:54:39.800161 2071388928 net.cpp:157] Top shape: 100 32 32 32 (3276800)
I1206 02:54:39.800171 2071388928 net.cpp:165] Memory required for data: 14336400
I1206 02:54:39.800191 2071388928 layer_factory.hpp:76] Creating layer pool1
I1206 02:54:39.800204 2071388928 net.cpp:106] Creating Layer pool1
I1206 02:54:39.800211 2071388928 net.cpp:454] pool1 <- conv1
I1206 02:54:39.800220 2071388928 net.cpp:411] pool1 -> pool1
I1206 02:54:39.800285 2071388928 net.cpp:150] Setting up pool1
I1206 02:54:39.800293 2071388928 net.cpp:157] Top shape: 100 32 16 16 (819200)
I1206 02:54:39.800302 2071388928 net.cpp:165] Memory required for data: 17613200
I1206 02:54:39.800308 2071388928 layer_factory.hpp:76] Creating layer relu1
I1206 02:54:39.821877 2071388928 net.cpp:106] Creating Layer relu1
I1206 02:54:39.821904 2071388928 net.cpp:454] relu1 <- pool1
I1206 02:54:39.821916 2071388928 net.cpp:397] relu1 -> pool1 (in-place)
I1206 02:54:39.821929 2071388928 net.cpp:150] Setting up relu1
I1206 02:54:39.821935 2071388928 net.cpp:157] Top shape: 100 32 16 16 (819200)
I1206 02:54:39.821944 2071388928 net.cpp:165] Memory required for data: 20890000
I1206 02:54:39.821951 2071388928 layer_factory.hpp:76] Creating layer conv2
I1206 02:54:39.821964 2071388928 net.cpp:106] Creating Layer conv2
I1206 02:54:39.821970 2071388928 net.cpp:454] conv2 <- pool1
I1206 02:54:39.821985 2071388928 net.cpp:411] conv2 -> conv2
I1206 02:54:39.822944 2071388928 net.cpp:150] Setting up conv2
I1206 02:54:39.822963 2071388928 net.cpp:157] Top shape: 100 32 16 16 (819200)
I1206 02:54:39.822973 2071388928 net.cpp:165] Memory required for data: 24166800
I1206 02:54:39.822985 2071388928 layer_factory.hpp:76] Creating layer relu2
I1206 02:54:39.822994 2071388928 net.cpp:106] Creating Layer relu2
I1206 02:54:39.823001 2071388928 net.cpp:454] relu2 <- conv2
I1206 02:54:39.823012 2071388928 net.cpp:397] relu2 -> conv2 (in-place)
I1206 02:54:39.823022 2071388928 net.cpp:150] Setting up relu2
I1206 02:54:39.823029 2071388928 net.cpp:157] Top shape: 100 32 16 16 (819200)
I1206 02:54:39.823036 2071388928 net.cpp:165] Memory required for data: 27443600
I1206 02:54:39.823043 2071388928 layer_factory.hpp:76] Creating layer pool2
I1206 02:54:39.823051 2071388928 net.cpp:106] Creating Layer pool2
I1206 02:54:39.823057 2071388928 net.cpp:454] pool2 <- conv2
I1206 02:54:39.823065 2071388928 net.cpp:411] pool2 -> pool2
I1206 02:54:39.823088 2071388928 net.cpp:150] Setting up pool2
I1206 02:54:39.823096 2071388928 net.cpp:157] Top shape: 100 32 8 8 (204800)
I1206 02:54:39.823103 2071388928 net.cpp:165] Memory required for data: 28262800
I1206 02:54:39.823109 2071388928 layer_factory.hpp:76] Creating layer conv3
I1206 02:54:39.823118 2071388928 net.cpp:106] Creating Layer conv3
I1206 02:54:39.823125 2071388928 net.cpp:454] conv3 <- pool2
I1206 02:54:39.823137 2071388928 net.cpp:411] conv3 -> conv3
I1206 02:54:39.824087 2071388928 net.cpp:150] Setting up conv3
I1206 02:54:39.824098 2071388928 net.cpp:157] Top shape: 100 64 8 8 (409600)
I1206 02:54:39.824106 2071388928 net.cpp:165] Memory required for data: 29901200
I1206 02:54:39.824117 2071388928 layer_factory.hpp:76] Creating layer relu3
I1206 02:54:39.824131 2071388928 net.cpp:106] Creating Layer relu3
I1206 02:54:39.824137 2071388928 net.cpp:454] relu3 <- conv3
I1206 02:54:39.824147 2071388928 net.cpp:397] relu3 -> conv3 (in-place)
I1206 02:54:39.824157 2071388928 net.cpp:150] Setting up relu3
I1206 02:54:39.824163 2071388928 net.cpp:157] Top shape: 100 64 8 8 (409600)
I1206 02:54:39.824203 2071388928 net.cpp:165] Memory required for data: 31539600
I1206 02:54:39.824210 2071388928 layer_factory.hpp:76] Creating layer pool3
I1206 02:54:39.824218 2071388928 net.cpp:106] Creating Layer pool3
I1206 02:54:39.824225 2071388928 net.cpp:454] pool3 <- conv3
I1206 02:54:39.824236 2071388928 net.cpp:411] pool3 -> pool3
I1206 02:54:39.824261 2071388928 net.cpp:150] Setting up pool3
I1206 02:54:39.824270 2071388928 net.cpp:157] Top shape: 100 64 4 4 (102400)
I1206 02:54:39.824277 2071388928 net.cpp:165] Memory required for data: 31949200
I1206 02:54:39.824283 2071388928 layer_factory.hpp:76] Creating layer ip1
I1206 02:54:39.824296 2071388928 net.cpp:106] Creating Layer ip1
I1206 02:54:39.824302 2071388928 net.cpp:454] ip1 <- pool3
I1206 02:54:39.824311 2071388928 net.cpp:411] ip1 -> ip1
I1206 02:54:39.825386 2071388928 net.cpp:150] Setting up ip1
I1206 02:54:39.825397 2071388928 net.cpp:157] Top shape: 100 64 (6400)
I1206 02:54:39.825404 2071388928 net.cpp:165] Memory required for data: 31974800
I1206 02:54:39.825413 2071388928 layer_factory.hpp:76] Creating layer ip2
I1206 02:54:39.825425 2071388928 net.cpp:106] Creating Layer ip2
I1206 02:54:39.825433 2071388928 net.cpp:454] ip2 <- ip1
I1206 02:54:39.825441 2071388928 net.cpp:411] ip2 -> ip2
I1206 02:54:39.825574 2071388928 net.cpp:150] Setting up ip2
I1206 02:54:39.825592 2071388928 net.cpp:157] Top shape: 100 10 (1000)
I1206 02:54:39.825601 2071388928 net.cpp:165] Memory required for data: 31978800
I1206 02:54:39.825614 2071388928 layer_factory.hpp:76] Creating layer loss
I1206 02:54:39.825630 2071388928 net.cpp:106] Creating Layer loss
I1206 02:54:39.825637 2071388928 net.cpp:454] loss <- ip2
I1206 02:54:39.825645 2071388928 net.cpp:454] loss <- label
I1206 02:54:39.825654 2071388928 net.cpp:411] loss -> loss
…
I1206 02:54:39.826195 2071388928 solver.cpp:180] Creating test net (#0) specified by net file: examples/cifar10/cifar10_quick_train_test.prototxt
I1206 02:54:39.826239 2071388928 net.cpp:322] The NetState phase (1) differed from the phase (0) specified by a rule in layer cifar
I1206 02:54:39.826256 2071388928 net.cpp:49] Initializing net from parameters:
name: "CIFAR10_quick"
state {
  phase: TEST
}
layer {
  name: "cifar"
  type: "Data"
  top: "data"
  top: "label"
  include {
    phase: TEST
  }
  transform_param {
    mean_file: "examples/cifar10/mean.binaryproto"
  }
  data_param {
    source: "examples/cifar10/cifar10_test_lmdb"
    batch_size: 100
    backend: LMDB
  }
}
layer {
  name: "conv1"
  type: "Convolution"
  bottom: "data"
  top: "conv1"
  param {
    lr_mult: 1
  }
  param {
    lr_mult: 2
  }
  convolution_param {
    num_output: 32
    pad: 2
    kernel_size: 5
    stride: 1
    weight_filler {
      type: "gaussian"
      std: 0.0001
    }
    bias_filler {
      type: "constant"
    }
  }
}
layer {
  name: "pool1"
  type: "Pooling"
  bottom: "conv1"
  top: "pool1"
  pooling_param {
    pool: MAX
    kernel_size: 3
    stride: 2
  }
}
layer {
  name: "relu1"
  type: "ReLU"
  bottom: "pool1"
  top: "pool1"
}
layer {
  name: "conv2"
  type: "Convolution"
  bottom: "pool1"
  top: "conv2"
  param {
    lr_mult: 1
  }
  param {
    lr_mult: 2
  }
  convolution_param {
    num_output: 32
    pad: 2
    kernel_size: 5
    stride: 1
    weight_filler {
      type: "gaussian"
      std: 0.01
    }
    bias_filler {
      type: "constant"
    }
  }
}
layer {
  name: "relu2"
  type: "ReLU"
  bottom: "conv2"
  top: "conv2"
}
layer {
  name: "pool2"
  type: "Pooling"
  bottom: "conv2"
  top: "pool2"
  pooling_param {
    pool: AVE
    kernel_size: 3
    stride: 2
  }
}
layer {
  name: "conv3"
  type: "Convolution"
  bottom: "pool2"
  top: "conv3"
  param {
    lr_mult: 1
  }
  param {
    lr_mult: 2
  }
  convolution_param {
    num_output: 64
    pad: 2
    kernel_size: 5
    stride: 1
    weight_filler {
      type: "gaussian"
      std: 0.01
    }
    bias_filler {
      type: "constant"
    }
  }
}
layer {
  name: "relu3"
  type: "ReLU"
  bottom: "conv3"
  top: "conv3"
}
layer {
  name: "pool3"
  type: "Pooling"
  bottom: "conv3"
  top: "pool3"
  pooling_param {
    pool: AVE
    kernel_size: 3
    stride: 2
  }
}
layer {
  name: "ip1"
  type: "InnerProduct"
  bottom: "pool3"
  top: "ip1"
  param {
    lr_mult: 1
  }
  param {
    lr_mult: 2
  }
  inner_product_param {
    num_output: 64
    weight_filler {
      type: "gaussian"
      std: 0.1
    }
    bias_filler {
      type: "constant"
    }
  }
}
layer {
  name: "ip2"
  type: "InnerProduct"
  bottom: "ip1"
  top: "ip2"
  param {
    lr_mult: 1
  }
  param {
    lr_mult: 2
  }
  inner_product_param {
    num_output: 10
    weight_filler {
      type: "gaussian"
      std: 0.1
    }
    bias_filler {
      type: "constant"
    }
  }
}
layer {
  name: "accuracy"
  type: "Accuracy"
  bottom: "ip2"
  bottom: "label"
  top: "accuracy"
  include {
    phase: TEST
  }
}
layer {
  name: "loss"
  type: "SoftmaxWithLoss"
  bottom: "ip2"
  bottom: "label"
  top: "loss"
}
I1206 02:54:39.826988 2071388928 layer_factory.hpp:76] Creating layer cifar
I1206 02:54:39.827149 2071388928 net.cpp:106] Creating Layer cifar
I1206 02:54:39.827162 2071388928 net.cpp:411] cifar -> data
I1206 02:54:39.827174 2071388928 net.cpp:411] cifar -> label
I1206 02:54:39.827185 2071388928 data_transformer.cpp:25] Loading mean file from: examples/cifar10/mean.binaryproto
I1206 02:54:39.832332 195952640 db_lmdb.cpp:38] Opened lmdb examples/cifar10/cifar10_test_lmdb
I1206 02:54:39.832496 2071388928 data_layer.cpp:41] output data size: 100,3,32,32
I1206 02:54:39.844300 2071388928 net.cpp:150] Setting up cifar
I1206 02:54:39.844351 2071388928 net.cpp:157] Top shape: 100 3 32 32 (307200)
I1206 02:54:39.844360 2071388928 net.cpp:157] Top shape: 100 (100)
I1206 02:54:39.844367 2071388928 net.cpp:165] Memory required for data: 1229200
I1206 02:54:39.844377 2071388928 layer_factory.hpp:76] Creating layer label_cifar_1_split
I1206 02:54:39.844393 2071388928 net.cpp:106] Creating Layer label_cifar_1_split
I1206 02:54:39.844411 2071388928 net.cpp:454] label_cifar_1_split <- label
I1206 02:54:39.844422 2071388928 net.cpp:411] label_cifar_1_split -> label_cifar_1_split_0
I1206 02:54:39.844435 2071388928 net.cpp:411] label_cifar_1_split -> label_cifar_1_split_1
I1206 02:54:39.844486 2071388928 net.cpp:150] Setting up label_cifar_1_split
I1206 02:54:39.844496 2071388928 net.cpp:157] Top shape: 100 (100)
I1206 02:54:39.844502 2071388928 net.cpp:157] Top shape: 100 (100)
I1206 02:54:39.844509 2071388928 net.cpp:165] Memory required for data: 1230000
I1206 02:54:39.844516 2071388928 layer_factory.hpp:76] Creating layer conv1
I1206 02:54:39.844563 2071388928 net.cpp:106] Creating Layer conv1
I1206 02:54:39.844570 2071388928 net.cpp:454] conv1 <- data
I1206 02:54:39.844580 2071388928 net.cpp:411] conv1 -> conv1
I1206 02:54:39.844874 2071388928 net.cpp:150] Setting up conv1
I1206 02:54:39.844887 2071388928 net.cpp:157] Top shape: 100 32 32 32 (3276800)
I1206 02:54:39.844895 2071388928 net.cpp:165] Memory required for data: 14337200
I1206 02:54:39.844918 2071388928 layer_factory.hpp:76] Creating layer pool1
I1206 02:54:39.844929 2071388928 net.cpp:106] Creating Layer pool1
I1206 02:54:39.844936 2071388928 net.cpp:454] pool1 <- conv1
I1206 02:54:39.844944 2071388928 net.cpp:411] pool1 -> pool1
I1206 02:54:39.844988 2071388928 net.cpp:150] Setting up pool1
I1206 02:54:39.844996 2071388928 net.cpp:157] Top shape: 100 32 16 16 (819200)
I1206 02:54:39.845005 2071388928 net.cpp:165] Memory required for data: 17614000
I1206 02:54:39.845012 2071388928 layer_factory.hpp:76] Creating layer relu1
I1206 02:54:39.845021 2071388928 net.cpp:106] Creating Layer relu1
I1206 02:54:39.845028 2071388928 net.cpp:454] relu1 <- pool1
I1206 02:54:39.845036 2071388928 net.cpp:397] relu1 -> pool1 (in-place)
I1206 02:54:39.845046 2071388928 net.cpp:150] Setting up relu1
I1206 02:54:39.845052 2071388928 net.cpp:157] Top shape: 100 32 16 16 (819200)
I1206 02:54:39.845060 2071388928 net.cpp:165] Memory required for data: 20890800
I1206 02:54:39.845067 2071388928 layer_factory.hpp:76] Creating layer conv2
I1206 02:54:39.845077 2071388928 net.cpp:106] Creating Layer conv2
I1206 02:54:39.845083 2071388928 net.cpp:454] conv2 <- pool1
I1206 02:54:39.845095 2071388928 net.cpp:411] conv2 -> conv2
I1206 02:54:39.845724 2071388928 net.cpp:150] Setting up conv2
I1206 02:54:39.845744 2071388928 net.cpp:157] Top shape: 100 32 16 16 (819200)
I1206 02:54:39.845762 2071388928 net.cpp:165] Memory required for data: 24167600
I1206 02:54:39.845773 2071388928 layer_factory.hpp:76] Creating layer relu2
I1206 02:54:39.845782 2071388928 net.cpp:106] Creating Layer relu2
I1206 02:54:39.845788 2071388928 net.cpp:454] relu2 <- conv2
I1206 02:54:39.845798 2071388928 net.cpp:397] relu2 -> conv2 (in-place)
I1206 02:54:39.845808 2071388928 net.cpp:150] Setting up relu2
I1206 02:54:39.845813 2071388928 net.cpp:157] Top shape: 100 32 16 16 (819200)
I1206 02:54:39.845820 2071388928 net.cpp:165] Memory required for data: 27444400
I1206 02:54:39.845827 2071388928 layer_factory.hpp:76] Creating layer pool2
I1206 02:54:39.845834 2071388928 net.cpp:106] Creating Layer pool2
I1206 02:54:39.845840 2071388928 net.cpp:454] pool2 <- conv2
I1206 02:54:39.845849 2071388928 net.cpp:411] pool2 -> pool2
I1206 02:54:39.845870 2071388928 net.cpp:150] Setting up pool2
I1206 02:54:39.845876 2071388928 net.cpp:157] Top shape: 100 32 8 8 (204800)
I1206 02:54:39.845885 2071388928 net.cpp:165] Memory required for data: 28263600
I1206 02:54:39.845891 2071388928 layer_factory.hpp:76] Creating layer conv3
I1206 02:54:39.845901 2071388928 net.cpp:106] Creating Layer conv3
I1206 02:54:39.845907 2071388928 net.cpp:454] conv3 <- pool2
I1206 02:54:39.845919 2071388928 net.cpp:411] conv3 -> conv3
I1206 02:54:39.846900 2071388928 net.cpp:150] Setting up conv3
I1206 02:54:39.846911 2071388928 net.cpp:157] Top shape: 100 64 8 8 (409600)
I1206 02:54:39.846920 2071388928 net.cpp:165] Memory required for data: 29902000
I1206 02:54:39.846930 2071388928 layer_factory.hpp:76] Creating layer relu3
I1206 02:54:39.846941 2071388928 net.cpp:106] Creating Layer relu3
I1206 02:54:39.846948 2071388928 net.cpp:454] relu3 <- conv3
I1206 02:54:39.846956 2071388928 net.cpp:397] relu3 -> conv3 (in-place)
I1206 02:54:39.846964 2071388928 net.cpp:150] Setting up relu3
I1206 02:54:39.846971 2071388928 net.cpp:157] Top shape: 100 64 8 8 (409600)
I1206 02:54:39.846978 2071388928 net.cpp:165] Memory required for data: 31540400
I1206 02:54:39.846984 2071388928 layer_factory.hpp:76] Creating layer pool3
I1206 02:54:39.846992 2071388928 net.cpp:106] Creating Layer pool3
I1206 02:54:39.846998 2071388928 net.cpp:454] pool3 <- conv3
I1206 02:54:39.847021 2071388928 net.cpp:411] pool3 -> pool3
I1206 02:54:39.847048 2071388928 net.cpp:150] Setting up pool3
I1206 02:54:39.847055 2071388928 net.cpp:157] Top shape: 100 64 4 4 (102400)
I1206 02:54:39.847062 2071388928 net.cpp:165] Memory required for data: 31950000
I1206 02:54:39.847069 2071388928 layer_factory.hpp:76] Creating layer ip1
I1206 02:54:39.847082 2071388928 net.cpp:106] Creating Layer ip1
I1206 02:54:39.847090 2071388928 net.cpp:454] ip1 <- pool3
I1206 02:54:39.847097 2071388928 net.cpp:411] ip1 -> ip1
I1206 02:54:39.848426 2071388928 net.cpp:150] Setting up ip1
I1206 02:54:39.848439 2071388928 net.cpp:157] Top shape: 100 64 (6400)
I1206 02:54:39.848448 2071388928 net.cpp:165] Memory required for data: 31975600
I1206 02:54:39.848456 2071388928 layer_factory.hpp:76] Creating layer ip2
I1206 02:54:39.848466 2071388928 net.cpp:106] Creating Layer ip2
I1206 02:54:39.848472 2071388928 net.cpp:454] ip2 <- ip1
I1206 02:54:39.848484 2071388928 net.cpp:411] ip2 -> ip2
I1206 02:54:39.848597 2071388928 net.cpp:150] Setting up ip2
I1206 02:54:39.848605 2071388928 net.cpp:157] Top shape: 100 10 (1000)
I1206 02:54:39.848613 2071388928 net.cpp:165] Memory required for data: 31979600
I1206 02:54:39.848626 2071388928 layer_factory.hpp:76] Creating layer ip2_ip2_0_split
I1206 02:54:39.848635 2071388928 net.cpp:106] Creating Layer ip2_ip2_0_split
I1206 02:54:39.848641 2071388928 net.cpp:454] ip2_ip2_0_split <- ip2
I1206 02:54:39.848649 2071388928 net.cpp:411] ip2_ip2_0_split -> ip2_ip2_0_split_0
I1206 02:54:39.848659 2071388928 net.cpp:411] ip2_ip2_0_split -> ip2_ip2_0_split_1
I1206 02:54:39.848696 2071388928 net.cpp:150] Setting up ip2_ip2_0_split
I1206 02:54:39.848705 2071388928 net.cpp:157] Top shape: 100 10 (1000)
I1206 02:54:39.848711 2071388928 net.cpp:157] Top shape: 100 10 (1000)
I1206 02:54:39.848718 2071388928 net.cpp:165] Memory required for data: 31987600
I1206 02:54:39.848726 2071388928 layer_factory.hpp:76] Creating layer accuracy
I1206 02:54:39.848738 2071388928 net.cpp:106] Creating Layer accuracy
I1206 02:54:39.848745 2071388928 net.cpp:454] accuracy <- ip2_ip2_0_split_0
I1206 02:54:39.848752 2071388928 net.cpp:454] accuracy <- label_cifar_1_split_0
I1206 02:54:39.848760 2071388928 net.cpp:411] accuracy -> accuracy
…
