…
I1206 15:35:44.344534 2071388928 net.cpp:322] The NetState phase (0) differed from the phase (1) specified by a rule in layer mnist
I1206 15:35:44.344560 2071388928 net.cpp:322] The NetState phase (0) differed from the phase (1) specified by a rule in layer accuracy
I1206 15:35:44.344571 2071388928 net.cpp:49] Initializing net from parameters:
name: "LeNet"
state {
  phase: TRAIN
}
layer {
  name: "mnist"
  type: "Data"
  top: "data"
  top: "label"
  include {
    phase: TRAIN
  }
  transform_param {
    scale: 0.00390625
  }
  data_param {
    source: "examples/mnist/mnist_train_lmdb"
    batch_size: 64
    backend: LMDB
  }
}
layer {
  name: "conv1"
  type: "Convolution"
  bottom: "data"
  top: "conv1"
  param {
    lr_mult: 1
  }
  param {
    lr_mult: 2
  }
  convolution_param {
    num_output: 20
    kernel_size: 5
    stride: 1
    weight_filler {
      type: "xavier"
    }
    bias_filler {
      type: "constant"
    }
  }
}
layer {
  name: "pool1"
  type: "Pooling"
  bottom: "conv1"
  top: "pool1"
  pooling_param {
    pool: MAX
    kernel_size: 2
    stride: 2
  }
}
layer {
  name: "conv2"
  type: "Convolution"
  bottom: "pool1"
  top: "conv2"
  param {
    lr_mult: 1
  }
  param {
    lr_mult: 2
  }
  convolution_param {
    num_output: 50
    kernel_size: 5
    stride: 1
    weight_filler {
      type: "xavier"
    }
    bias_filler {
      type: "constant"
    }
  }
}
layer {
  name: "pool2"
  type: "Pooling"
  bottom: "conv2"
  top: "pool2"
  pooling_param {
    pool: MAX
    kernel_size: 2
    stride: 2
  }
}
layer {
  name: "ip1"
  type: "InnerProduct"
  bottom: "pool2"
  top: "ip1"
  param {
    lr_mult: 1
  }
  param {
    lr_mult: 2
  }
  inner_product_param {
    num_output: 500
    weight_filler {
      type: "xavier"
    }
    bias_filler {
      type: "constant"
    }
  }
}
layer {
  name: "relu1"
  type: "ReLU"
  bottom: "ip1"
  top: "ip1"
}
layer {
  name: "ip2"
  type: "InnerProduct"
  bottom: "ip1"
  top: "ip2"
  param {
    lr_mult: 1
  }
  param {
    lr_mult: 2
  }
  inner_product_param {
    num_output: 10
    weight_filler {
      type: "xavier"
    }
    bias_filler {
      type: "constant"
    }
  }
}
layer {
  name: "loss"
  type: "SoftmaxWithLoss"
  bottom: "ip2"
  bottom: "label"
  top: "loss"
}
I1206 15:35:44.346588 2071388928 layer_factory.hpp:76] Creating layer mnist
I1206 15:35:44.354609 2071388928 net.cpp:106] Creating Layer mnist
I1206 15:35:44.354645 2071388928 net.cpp:411] mnist -> data
I1206 15:35:44.355340 2071388928 net.cpp:411] mnist -> label
I1206 15:35:44.360402 229879808 db_lmdb.cpp:38] Opened lmdb examples/mnist/mnist_train_lmdb
I1206 15:35:44.404866 2071388928 data_layer.cpp:41] output data size: 64,1,28,28
I1206 15:35:44.408982 2071388928 net.cpp:150] Setting up mnist
I1206 15:35:44.409008 2071388928 net.cpp:157] Top shape: 64 1 28 28 (50176)
I1206 15:35:44.409023 2071388928 net.cpp:157] Top shape: 64 (64)
I1206 15:35:44.409030 2071388928 net.cpp:165] Memory required for data: 200960
I1206 15:35:44.409044 2071388928 layer_factory.hpp:76] Creating layer conv1
I1206 15:35:44.409062 2071388928 net.cpp:106] Creating Layer conv1
I1206 15:35:44.409070 2071388928 net.cpp:454] conv1 <- data
I1206 15:35:44.409081 2071388928 net.cpp:411] conv1 -> conv1
I1206 15:35:44.410660 2071388928 net.cpp:150] Setting up conv1
I1206 15:35:44.410681 2071388928 net.cpp:157] Top shape: 64 20 24 24 (737280)
I1206 15:35:44.410689 2071388928 net.cpp:165] Memory required for data: 3150080
I1206 15:35:44.410706 2071388928 layer_factory.hpp:76] Creating layer pool1
I1206 15:35:44.410719 2071388928 net.cpp:106] Creating Layer pool1
I1206 15:35:44.410755 2071388928 net.cpp:454] pool1 <- conv1
I1206 15:35:44.410765 2071388928 net.cpp:411] pool1 -> pool1
I1206 15:35:44.411131 2071388928 net.cpp:150] Setting up pool1
I1206 15:35:44.411145 2071388928 net.cpp:157] Top shape: 64 20 12 12 (184320)
I1206 15:35:44.411154 2071388928 net.cpp:165] Memory required for data: 3887360
I1206 15:35:44.411160 2071388928 layer_factory.hpp:76] Creating layer conv2
I1206 15:35:44.411173 2071388928 net.cpp:106] Creating Layer conv2
I1206 15:35:44.411180 2071388928 net.cpp:454] conv2 <- pool1
I1206 15:35:44.411192 2071388928 net.cpp:411] conv2 -> conv2
I1206 15:35:44.411658 2071388928 net.cpp:150] Setting up conv2
I1206 15:35:44.411669 2071388928 net.cpp:157] Top shape: 64 50 8 8 (204800)
I1206 15:35:44.411677 2071388928 net.cpp:165] Memory required for data: 4706560
I1206 15:35:44.411687 2071388928 layer_factory.hpp:76] Creating layer pool2
I1206 15:35:44.411700 2071388928 net.cpp:106] Creating Layer pool2
I1206 15:35:44.411706 2071388928 net.cpp:454] pool2 <- conv2
I1206 15:35:44.411715 2071388928 net.cpp:411] pool2 -> pool2
I1206 15:35:44.411751 2071388928 net.cpp:150] Setting up pool2
I1206 15:35:44.411759 2071388928 net.cpp:157] Top shape: 64 50 4 4 (51200)
I1206 15:35:44.411767 2071388928 net.cpp:165] Memory required for data: 4911360
I1206 15:35:44.411772 2071388928 layer_factory.hpp:76] Creating layer ip1
I1206 15:35:44.411782 2071388928 net.cpp:106] Creating Layer ip1
I1206 15:35:44.411788 2071388928 net.cpp:454] ip1 <- pool2
I1206 15:35:44.411797 2071388928 net.cpp:411] ip1 -> ip1
I1206 15:35:44.416694 2071388928 net.cpp:150] Setting up ip1
I1206 15:35:44.416717 2071388928 net.cpp:157] Top shape: 64 500 (32000)
I1206 15:35:44.416724 2071388928 net.cpp:165] Memory required for data: 5039360
I1206 15:35:44.416740 2071388928 layer_factory.hpp:76] Creating layer relu1
I1206 15:35:44.417003 2071388928 net.cpp:106] Creating Layer relu1
I1206 15:35:44.417021 2071388928 net.cpp:454] relu1 <- ip1
I1206 15:35:44.417032 2071388928 net.cpp:397] relu1 -> ip1 (in-place)
I1206 15:35:44.417042 2071388928 net.cpp:150] Setting up relu1
I1206 15:35:44.417048 2071388928 net.cpp:157] Top shape: 64 500 (32000)
I1206 15:35:44.417057 2071388928 net.cpp:165] Memory required for data: 5167360
I1206 15:35:44.417067 2071388928 layer_factory.hpp:76] Creating layer ip2
I1206 15:35:44.417085 2071388928 net.cpp:106] Creating Layer ip2
I1206 15:35:44.417103 2071388928 net.cpp:454] ip2 <- ip1
I1206 15:35:44.417125 2071388928 net.cpp:411] ip2 -> ip2
I1206 15:35:44.417618 2071388928 net.cpp:150] Setting up ip2
I1206 15:35:44.417631 2071388928 net.cpp:157] Top shape: 64 10 (640)
I1206 15:35:44.417639 2071388928 net.cpp:165] Memory required for data: 5169920
I1206 15:35:44.417649 2071388928 layer_factory.hpp:76] Creating layer loss
I1206 15:35:44.417662 2071388928 net.cpp:106] Creating Layer loss
I1206 15:35:44.417670 2071388928 net.cpp:454] loss <- ip2
I1206 15:35:44.417680 2071388928 net.cpp:454] loss <- label
I1206 15:35:44.417695 2071388928 net.cpp:411] loss -> loss
…
I1206 15:35:44.418174 2071388928 solver.cpp:180] Creating test net (#0) specified by net file: examples/mnist/lenet_train_test.prototxt
I1206 15:35:44.418220 2071388928 net.cpp:322] The NetState phase (1) differed from the phase (0) specified by a rule in layer mnist
I1206 15:35:44.418236 2071388928 net.cpp:49] Initializing net from parameters:
name: "LeNet"
state {
  phase: TEST
}
layer {
  name: "mnist"
  type: "Data"
  top: "data"
  top: "label"
  include {
    phase: TEST
  }
  transform_param {
    scale: 0.00390625
  }
  data_param {
    source: "examples/mnist/mnist_test_lmdb"
    batch_size: 100
    backend: LMDB
  }
}
layer {
  name: "conv1"
  type: "Convolution"
  bottom: "data"
  top: "conv1"
  param {
    lr_mult: 1
  }
  param {
    lr_mult: 2
  }
  convolution_param {
    num_output: 20
    kernel_size: 5
    stride: 1
    weight_filler {
      type: "xavier"
    }
    bias_filler {
      type: "constant"
    }
  }
}
layer {
  name: "pool1"
  type: "Pooling"
  bottom: "conv1"
  top: "pool1"
  pooling_param {
    pool: MAX
    kernel_size: 2
    stride: 2
  }
}
layer {
  name: "conv2"
  type: "Convolution"
  bottom: "pool1"
  top: "conv2"
  param {
    lr_mult: 1
  }
  param {
    lr_mult: 2
  }
  convolution_param {
    num_output: 50
    kernel_size: 5
    stride: 1
    weight_filler {
      type: "xavier"
    }
    bias_filler {
      type: "constant"
    }
  }
}
layer {
  name: "pool2"
  type: "Pooling"
  bottom: "conv2"
  top: "pool2"
  pooling_param {
    pool: MAX
    kernel_size: 2
    stride: 2
  }
}
layer {
  name: "ip1"
  type: "InnerProduct"
  bottom: "pool2"
  top: "ip1"
  param {
    lr_mult: 1
  }
  param {
    lr_mult: 2
  }
  inner_product_param {
    num_output: 500
    weight_filler {
      type: "xavier"
    }
    bias_filler {
      type: "constant"
    }
  }
}
layer {
  name: "relu1"
  type: "ReLU"
  bottom: "ip1"
  top: "ip1"
}
layer {
  name: "ip2"
  type: "InnerProduct"
  bottom: "ip1"
  top: "ip2"
  param {
    lr_mult: 1
  }
  param {
    lr_mult: 2
  }
  inner_product_param {
    num_output: 10
    weight_filler {
      type: "xavier"
    }
    bias_filler {
      type: "constant"
    }
  }
}
layer {
  name: "accuracy"
  type: "Accuracy"
  bottom: "ip2"
  bottom: "label"
  top: "accuracy"
  include {
    phase: TEST
  }
}
layer {
  name: "loss"
  type: "SoftmaxWithLoss"
  bottom: "ip2"
  bottom: "label"
  top: "loss"
}
I1206 15:35:44.418634 2071388928 layer_factory.hpp:76] Creating layer mnist
I1206 15:35:44.418812 2071388928 net.cpp:106] Creating Layer mnist
I1206 15:35:44.418823 2071388928 net.cpp:411] mnist -> data
I1206 15:35:44.418836 2071388928 net.cpp:411] mnist -> label
I1206 15:35:44.423820 231206912 db_lmdb.cpp:38] Opened lmdb examples/mnist/mnist_test_lmdb
I1206 15:35:44.424003 2071388928 data_layer.cpp:41] output data size: 100,1,28,28
I1206 15:35:44.425990 2071388928 net.cpp:150] Setting up mnist
I1206 15:35:44.426003 2071388928 net.cpp:157] Top shape: 100 1 28 28 (78400)
I1206 15:35:44.426023 2071388928 net.cpp:157] Top shape: 100 (100)
I1206 15:35:44.426030 2071388928 net.cpp:165] Memory required for data: 314000
I1206 15:35:44.426038 2071388928 layer_factory.hpp:76] Creating layer label_mnist_1_split
I1206 15:35:44.426050 2071388928 net.cpp:106] Creating Layer label_mnist_1_split
I1206 15:35:44.426057 2071388928 net.cpp:454] label_mnist_1_split <- label
I1206 15:35:44.426066 2071388928 net.cpp:411] label_mnist_1_split -> label_mnist_1_split_0
I1206 15:35:44.426077 2071388928 net.cpp:411] label_mnist_1_split -> label_mnist_1_split_1
I1206 15:35:44.426172 2071388928 net.cpp:150] Setting up label_mnist_1_split
I1206 15:35:44.426182 2071388928 net.cpp:157] Top shape: 100 (100)
I1206 15:35:44.426190 2071388928 net.cpp:157] Top shape: 100 (100)
I1206 15:35:44.426197 2071388928 net.cpp:165] Memory required for data: 314800
I1206 15:35:44.426203 2071388928 layer_factory.hpp:76] Creating layer conv1
I1206 15:35:44.426235 2071388928 net.cpp:106] Creating Layer conv1
I1206 15:35:44.426244 2071388928 net.cpp:454] conv1 <- data
I1206 15:35:44.426252 2071388928 net.cpp:411] conv1 -> conv1
I1206 15:35:44.426476 2071388928 net.cpp:150] Setting up conv1
I1206 15:35:44.426486 2071388928 net.cpp:157] Top shape: 100 20 24 24 (1152000)
I1206 15:35:44.426494 2071388928 net.cpp:165] Memory required for data: 4922800
I1206 15:35:44.426506 2071388928 layer_factory.hpp:76] Creating layer pool1
I1206 15:35:44.426514 2071388928 net.cpp:106] Creating Layer pool1
I1206 15:35:44.426520 2071388928 net.cpp:454] pool1 <- conv1
I1206 15:35:44.426527 2071388928 net.cpp:411] pool1 -> pool1
I1206 15:35:44.426566 2071388928 net.cpp:150] Setting up pool1
I1206 15:35:44.426574 2071388928 net.cpp:157] Top shape: 100 20 12 12 (288000)
I1206 15:35:44.426581 2071388928 net.cpp:165] Memory required for data: 6074800
I1206 15:35:44.426587 2071388928 layer_factory.hpp:76] Creating layer conv2
I1206 15:35:44.426597 2071388928 net.cpp:106] Creating Layer conv2
I1206 15:35:44.426604 2071388928 net.cpp:454] conv2 <- pool1
I1206 15:35:44.426612 2071388928 net.cpp:411] conv2 -> conv2
I1206 15:35:44.427084 2071388928 net.cpp:150] Setting up conv2
I1206 15:35:44.427095 2071388928 net.cpp:157] Top shape: 100 50 8 8 (320000)
I1206 15:35:44.427103 2071388928 net.cpp:165] Memory required for data: 7354800
I1206 15:35:44.427114 2071388928 layer_factory.hpp:76] Creating layer pool2
I1206 15:35:44.427121 2071388928 net.cpp:106] Creating Layer pool2
I1206 15:35:44.427127 2071388928 net.cpp:454] pool2 <- conv2
I1206 15:35:44.427137 2071388928 net.cpp:411] pool2 -> pool2
I1206 15:35:44.427171 2071388928 net.cpp:150] Setting up pool2
I1206 15:35:44.427180 2071388928 net.cpp:157] Top shape: 100 50 4 4 (80000)
I1206 15:35:44.427186 2071388928 net.cpp:165] Memory required for data: 7674800
I1206 15:35:44.427192 2071388928 layer_factory.hpp:76] Creating layer ip1
I1206 15:35:44.427204 2071388928 net.cpp:106] Creating Layer ip1
I1206 15:35:44.427211 2071388928 net.cpp:454] ip1 <- pool2
I1206 15:35:44.427219 2071388928 net.cpp:411] ip1 -> ip1
I1206 15:35:44.431619 2071388928 net.cpp:150] Setting up ip1
I1206 15:35:44.431635 2071388928 net.cpp:157] Top shape: 100 500 (50000)
I1206 15:35:44.431643 2071388928 net.cpp:165] Memory required for data: 7874800
I1206 15:35:44.431655 2071388928 layer_factory.hpp:76] Creating layer relu1
I1206 15:35:44.431664 2071388928 net.cpp:106] Creating Layer relu1
I1206 15:35:44.431694 2071388928 net.cpp:454] relu1 <- ip1
I1206 15:35:44.431705 2071388928 net.cpp:397] relu1 -> ip1 (in-place)
I1206 15:35:44.431716 2071388928 net.cpp:150] Setting up relu1
I1206 15:35:44.431728 2071388928 net.cpp:157] Top shape: 100 500 (50000)
I1206 15:35:44.431741 2071388928 net.cpp:165] Memory required for data: 8074800
I1206 15:35:44.431751 2071388928 layer_factory.hpp:76] Creating layer ip2
I1206 15:35:44.431766 2071388928 net.cpp:106] Creating Layer ip2
I1206 15:35:44.431777 2071388928 net.cpp:454] ip2 <- ip1
I1206 15:35:44.431789 2071388928 net.cpp:411] ip2 -> ip2
I1206 15:35:44.432018 2071388928 net.cpp:150] Setting up ip2
I1206 15:35:44.432030 2071388928 net.cpp:157] Top shape: 100 10 (1000)
I1206 15:35:44.432041 2071388928 net.cpp:165] Memory required for data: 8078800
I1206 15:35:44.432072 2071388928 layer_factory.hpp:76] Creating layer ip2_ip2_0_split
I1206 15:35:44.432085 2071388928 net.cpp:106] Creating Layer ip2_ip2_0_split
I1206 15:35:44.432092 2071388928 net.cpp:454] ip2_ip2_0_split <- ip2
I1206 15:35:44.432101 2071388928 net.cpp:411] ip2_ip2_0_split -> ip2_ip2_0_split_0
I1206 15:35:44.432114 2071388928 net.cpp:411] ip2_ip2_0_split -> ip2_ip2_0_split_1
I1206 15:35:44.432163 2071388928 net.cpp:150] Setting up ip2_ip2_0_split
I1206 15:35:44.432170 2071388928 net.cpp:157] Top shape: 100 10 (1000)
I1206 15:35:44.432178 2071388928 net.cpp:157] Top shape: 100 10 (1000)
I1206 15:35:44.432184 2071388928 net.cpp:165] Memory required for data: 8086800
I1206 15:35:44.432205 2071388928 layer_factory.hpp:76] Creating layer accuracy
I1206 15:35:44.432502 2071388928 net.cpp:106] Creating Layer accuracy
I1206 15:35:44.432538 2071388928 net.cpp:454] accuracy <- ip2_ip2_0_split_0
I1206 15:35:44.432548 2071388928 net.cpp:454] accuracy <- label_mnist_1_split_0
I1206 15:35:44.432560 2071388928 net.cpp:411] accuracy -> accuracy
…
